{"config": {"layers": [{"inbound_nodes": [], "name": "input_1", "class_name": "InputLayer", "config": {"batch_input_shape": [null, 128, 128, 3], "name": "input_1", "sparse": false, "dtype": "float32"}}, {"inbound_nodes": [[["input_1", 0, 0, {}]]], "name": "conv1_pad", "class_name": "ZeroPadding2D", "config": {"data_format": "channels_last", "name": "conv1_pad", "trainable": true, "padding": [[0, 1], [0, 1]]}}, {"inbound_nodes": [[["conv1_pad", 0, 0, {}]]], "name": "conv1", "class_name": "Conv2D", "config": {"strides": [2, 2], "bias_regularizer": null, "kernel_regularizer": null, "activation": "linear", "kernel_constraint": null, "data_format": "channels_last", "trainable": true, "activity_regularizer": null, "padding": "valid", "kernel_initializer": {"config": {"seed": null, "scale": 1.0, "mode": "fan_avg", "distribution": "uniform"}, "class_name": "VarianceScaling"}, "dilation_rate": [1, 1], "name": "conv1", "bias_initializer": {"config": {}, "class_name": "Zeros"}, "filters": 32, "use_bias": false, "bias_constraint": null, "kernel_size": [3, 3]}}, {"inbound_nodes": [[["conv1", 0, 0, {}]]], "name": "conv1_bn", "class_name": "BatchNormalization", "config": {"center": true, "scale": true, "gamma_initializer": {"config": {}, "class_name": "Ones"}, "moving_variance_initializer": {"config": {}, "class_name": "Ones"}, "beta_constraint": null, "epsilon": 0.001, "momentum": 0.99, "moving_mean_initializer": {"config": {}, "class_name": "Zeros"}, "name": "conv1_bn", "gamma_regularizer": null, "beta_initializer": {"config": {}, "class_name": "Zeros"}, "gamma_constraint": null, "axis": -1, "trainable": true, "beta_regularizer": null}}, {"inbound_nodes": [[["conv1_bn", 0, 0, {}]]], "name": "conv1_relu", "class_name": "ReLU", "config": {"name": "conv1_relu", "max_value": 6.0, "trainable": true}}, {"inbound_nodes": [[["conv1_relu", 0, 0, {}]]], "name": "conv_dw_1", "class_name": "DepthwiseConv2D", "config": {"depthwise_initializer": {"config": {"seed": null, "scale": 1.0, "mode": "fan_avg", "distribution": "uniform"}, "class_name": "VarianceScaling"}, "bias_regularizer": null, "depthwise_constraint": null, "depthwise_regularizer": null, "activation": "linear", "data_format": "channels_last", "trainable": true, "activity_regularizer": null, "name": "conv_dw_1", "kernel_size": [3, 3], "dilation_rate": [1, 1], "depth_multiplier": 1, "bias_initializer": {"config": {}, "class_name": "Zeros"}, "use_bias": false, "bias_constraint": null, "padding": "same", "strides": [1, 1]}}, {"inbound_nodes": [[["conv_dw_1", 0, 0, {}]]], "name": "conv_dw_1_bn", "class_name": "BatchNormalization", "config": {"center": true, "scale": true, "gamma_initializer": {"config": {}, "class_name": "Ones"}, "moving_variance_initializer": {"config": {}, "class_name": "Ones"}, "beta_constraint": null, "epsilon": 0.001, "momentum": 0.99, "moving_mean_initializer": {"config": {}, "class_name": "Zeros"}, "name": "conv_dw_1_bn", "gamma_regularizer": null, "beta_initializer": {"config": {}, "class_name": "Zeros"}, "gamma_constraint": null, "axis": -1, "trainable": true, "beta_regularizer": null}}, {"inbound_nodes": [[["conv_dw_1_bn", 0, 0, {}]]], "name": "conv_dw_1_relu", "class_name": "ReLU", "config": {"name": "conv_dw_1_relu", "max_value": 6.0, "trainable": true}}, {"inbound_nodes": [[["conv_dw_1_relu", 0, 0, {}]]], "name": "conv_pw_1", "class_name": "Conv2D", "config": {"strides": [1, 1], "bias_regularizer": null, "kernel_regularizer": null, "activation": "linear", "kernel_constraint": null, "data_format": "channels_last", "trainable": true, "activity_regularizer": null, "padding": "same", "kernel_initializer": {"config": {"seed": null, "scale": 1.0, "mode": "fan_avg", "distribution": "uniform"}, "class_name": "VarianceScaling"}, "dilation_rate": [1, 1], "name": "conv_pw_1", "bias_initializer": {"config": {}, "class_name": "Zeros"}, "filters": 64, "use_bias": false, "bias_constraint": null, "kernel_size": [1, 1]}}, {"inbound_nodes": [[["conv_pw_1", 0, 0, {}]]], "name": "conv_pw_1_bn", "class_name": "BatchNormalization", "config": {"center": true, "scale": true, "gamma_initializer": {"config": {}, "class_name": "Ones"}, "moving_variance_initializer": {"config": {}, "class_name": "Ones"}, "beta_constraint": null, "epsilon": 0.001, "momentum": 0.99, "moving_mean_initializer": {"config": {}, "class_name": "Zeros"}, "name": "conv_pw_1_bn", "gamma_regularizer": null, "beta_initializer": {"config": {}, "class_name": "Zeros"}, "gamma_constraint": null, "axis": -1, "trainable": true, "beta_regularizer": null}}, {"inbound_nodes": [[["conv_pw_1_bn", 0, 0, {}]]], "name": "conv_pw_1_relu", "class_name": "ReLU", "config": {"name": "conv_pw_1_relu", "max_value": 6.0, "trainable": true}}, {"inbound_nodes": [[["conv_pw_1_relu", 0, 0, {}]]], "name": "conv_pad_2", "class_name": "ZeroPadding2D", "config": {"data_format": "channels_last", "name": "conv_pad_2", "trainable": true, "padding": [[0, 1], [0, 1]]}}, {"inbound_nodes": [[["conv_pad_2", 0, 0, {}]]], "name": "conv_dw_2", "class_name": "DepthwiseConv2D", "config": {"depthwise_initializer": {"config": {"seed": null, "scale": 1.0, "mode": "fan_avg", "distribution": "uniform"}, "class_name": "VarianceScaling"}, "bias_regularizer": null, "depthwise_constraint": null, "depthwise_regularizer": null, "activation": "linear", "data_format": "channels_last", "trainable": true, "activity_regularizer": null, "name": "conv_dw_2", "kernel_size": [3, 3], "dilation_rate": [1, 1], "depth_multiplier": 1, "bias_initializer": {"config": {}, "class_name": "Zeros"}, "use_bias": false, "bias_constraint": null, "padding": "valid", "strides": [2, 2]}}, {"inbound_nodes": [[["conv_dw_2", 0, 0, {}]]], "name": "conv_dw_2_bn", "class_name": "BatchNormalization", "config": {"center": true, "scale": true, "gamma_initializer": {"config": {}, "class_name": "Ones"}, "moving_variance_initializer": {"config": {}, "class_name": "Ones"}, "beta_constraint": null, "epsilon": 0.001, "momentum": 0.99, "moving_mean_initializer": {"config": {}, "class_name": "Zeros"}, "name": "conv_dw_2_bn", "gamma_regularizer": null, "beta_initializer": {"config": {}, "class_name": "Zeros"}, "gamma_constraint": null, "axis": -1, "trainable": true, "beta_regularizer": null}}, {"inbound_nodes": [[["conv_dw_2_bn", 0, 0, {}]]], "name": "conv_dw_2_relu", "class_name": "ReLU", "config": {"name": "conv_dw_2_relu", "max_value": 6.0, "trainable": true}}, {"inbound_nodes": [[["conv_dw_2_relu", 0, 0, {}]]], "name": "conv_pw_2", "class_name": "Conv2D", "config": {"strides": [1, 1], "bias_regularizer": null, "kernel_regularizer": null, "activation": "linear", "kernel_constraint": null, "data_format": "channels_last", "trainable": true, "activity_regularizer": null, "padding": "same", "kernel_initializer": {"config": {"seed": null, "scale": 1.0, "mode": "fan_avg", "distribution": "uniform"}, "class_name": "VarianceScaling"}, "dilation_rate": [1, 1], "name": "conv_pw_2", "bias_initializer": {"config": {}, "class_name": "Zeros"}, "filters": 128, "use_bias": false, "bias_constraint": null, "kernel_size": [1, 1]}}, {"inbound_nodes": [[["conv_pw_2", 0, 0, {}]]], "name": "conv_pw_2_bn", "class_name": "BatchNormalization", "config": {"center": true, "scale": true, "gamma_initializer": {"config": {}, "class_name": "Ones"}, "moving_variance_initializer": {"config": {}, "class_name": "Ones"}, "beta_constraint": null, "epsilon": 0.001, "momentum": 0.99, "moving_mean_initializer": {"config": {}, "class_name": "Zeros"}, "name": "conv_pw_2_bn", "gamma_regularizer": null, "beta_initializer": {"config": {}, "class_name": "Zeros"}, "gamma_constraint": null, "axis": -1, "trainable": true, "beta_regularizer": null}}, {"inbound_nodes": [[["conv_pw_2_bn", 0, 0, {}]]], "name": "conv_pw_2_relu", "class_name": "ReLU", "config": {"name": "conv_pw_2_relu", "max_value": 6.0, "trainable": true}}, {"inbound_nodes": [[["conv_pw_2_relu", 0, 0, {}]]], "name": "conv_dw_3", "class_name": "DepthwiseConv2D", "config": {"depthwise_initializer": {"config": {"seed": null, "scale": 1.0, "mode": "fan_avg", "distribution": "uniform"}, "class_name": "VarianceScaling"}, "bias_regularizer": null, "depthwise_constraint": null, "depthwise_regularizer": null, "activation": "linear", "data_format": "channels_last", "trainable": true, "activity_regularizer": null, "name": "conv_dw_3", "kernel_size": [3, 3], "dilation_rate": [1, 1], "depth_multiplier": 1, "bias_initializer": {"config": {}, "class_name": "Zeros"}, "use_bias": false, "bias_constraint": null, "padding": "same", "strides": [1, 1]}}, {"inbound_nodes": [[["conv_dw_3", 0, 0, {}]]], "name": "conv_dw_3_bn", "class_name": "BatchNormalization", "config": {"center": true, "scale": true, "gamma_initializer": {"config": {}, "class_name": "Ones"}, "moving_variance_initializer": {"config": {}, "class_name": "Ones"}, "beta_constraint": null, "epsilon": 0.001, "momentum": 0.99, "moving_mean_initializer": {"config": {}, "class_name": "Zeros"}, "name": "conv_dw_3_bn", "gamma_regularizer": null, "beta_initializer": {"config": {}, "class_name": "Zeros"}, "gamma_constraint": null, "axis": -1, "trainable": true, "beta_regularizer": null}}, {"inbound_nodes": [[["conv_dw_3_bn", 0, 0, {}]]], "name": "conv_dw_3_relu", "class_name": "ReLU", "config": {"name": "conv_dw_3_relu", "max_value": 6.0, "trainable": true}}, {"inbound_nodes": [[["conv_dw_3_relu", 0, 0, {}]]], "name": "conv_pw_3", "class_name": "Conv2D", "config": {"strides": [1, 1], "bias_regularizer": null, "kernel_regularizer": null, "activation": "linear", "kernel_constraint": null, "data_format": "channels_last", "trainable": true, "activity_regularizer": null, "padding": "same", "kernel_initializer": {"config": {"seed": null, "scale": 1.0, "mode": "fan_avg", "distribution": "uniform"}, "class_name": "VarianceScaling"}, "dilation_rate": [1, 1], "name": "conv_pw_3", "bias_initializer": {"config": {}, "class_name": "Zeros"}, "filters": 128, "use_bias": false, "bias_constraint": null, "kernel_size": [1, 1]}}, {"inbound_nodes": [[["conv_pw_3", 0, 0, {}]]], "name": "conv_pw_3_bn", "class_name": "BatchNormalization", "config": {"center": true, "scale": true, "gamma_initializer": {"config": {}, "class_name": "Ones"}, "moving_variance_initializer": {"config": {}, "class_name": "Ones"}, "beta_constraint": null, "epsilon": 0.001, "momentum": 0.99, "moving_mean_initializer": {"config": {}, "class_name": "Zeros"}, "name": "conv_pw_3_bn", "gamma_regularizer": null, "beta_initializer": {"config": {}, "class_name": "Zeros"}, "gamma_constraint": null, "axis": -1, "trainable": true, "beta_regularizer": null}}, {"inbound_nodes": [[["conv_pw_3_bn", 0, 0, {}]]], "name": "conv_pw_3_relu", "class_name": "ReLU", "config": {"name": "conv_pw_3_relu", "max_value": 6.0, "trainable": true}}, {"inbound_nodes": [[["conv_pw_3_relu", 0, 0, {}]]], "name": "conv_pad_4", "class_name": "ZeroPadding2D", "config": {"data_format": "channels_last", "name": "conv_pad_4", "trainable": true, "padding": [[0, 1], [0, 1]]}}, {"inbound_nodes": [[["conv_pad_4", 0, 0, {}]]], "name": "conv_dw_4", "class_name": "DepthwiseConv2D", "config": {"depthwise_initializer": {"config": {"seed": null, "scale": 1.0, "mode": "fan_avg", "distribution": "uniform"}, "class_name": "VarianceScaling"}, "bias_regularizer": null, "depthwise_constraint": null, "depthwise_regularizer": null, "activation": "linear", "data_format": "channels_last", "trainable": true, "activity_regularizer": null, "name": "conv_dw_4", "kernel_size": [3, 3], "dilation_rate": [1, 1], "depth_multiplier": 1, "bias_initializer": {"config": {}, "class_name": "Zeros"}, "use_bias": false, "bias_constraint": null, "padding": "valid", "strides": [2, 2]}}, {"inbound_nodes": [[["conv_dw_4", 0, 0, {}]]], "name": "conv_dw_4_bn", "class_name": "BatchNormalization", "config": {"center": true, "scale": true, "gamma_initializer": {"config": {}, "class_name": "Ones"}, "moving_variance_initializer": {"config": {}, "class_name": "Ones"}, "beta_constraint": null, "epsilon": 0.001, "momentum": 0.99, "moving_mean_initializer": {"config": {}, "class_name": "Zeros"}, "name": "conv_dw_4_bn", "gamma_regularizer": null, "beta_initializer": {"config": {}, "class_name": "Zeros"}, "gamma_constraint": null, "axis": -1, "trainable": true, "beta_regularizer": null}}, {"inbound_nodes": [[["conv_dw_4_bn", 0, 0, {}]]], "name": "conv_dw_4_relu", "class_name": "ReLU", "config": {"name": "conv_dw_4_relu", "max_value": 6.0, "trainable": true}}, {"inbound_nodes": [[["conv_dw_4_relu", 0, 0, {}]]], "name": "conv_pw_4", "class_name": "Conv2D", "config": {"strides": [1, 1], "bias_regularizer": null, "kernel_regularizer": null, "activation": "linear", "kernel_constraint": null, "data_format": "channels_last", "trainable": true, "activity_regularizer": null, "padding": "same", "kernel_initializer": {"config": {"seed": null, "scale": 1.0, "mode": "fan_avg", "distribution": "uniform"}, "class_name": "VarianceScaling"}, "dilation_rate": [1, 1], "name": "conv_pw_4", "bias_initializer": {"config": {}, "class_name": "Zeros"}, "filters": 256, "use_bias": false, "bias_constraint": null, "kernel_size": [1, 1]}}, {"inbound_nodes": [[["conv_pw_4", 0, 0, {}]]], "name": "conv_pw_4_bn", "class_name": "BatchNormalization", "config": {"center": true, "scale": true, "gamma_initializer": {"config": {}, "class_name": "Ones"}, "moving_variance_initializer": {"config": {}, "class_name": "Ones"}, "beta_constraint": null, "epsilon": 0.001, "momentum": 0.99, "moving_mean_initializer": {"config": {}, "class_name": "Zeros"}, "name": "conv_pw_4_bn", "gamma_regularizer": null, "beta_initializer": {"config": {}, "class_name": "Zeros"}, "gamma_constraint": null, "axis": -1, "trainable": true, "beta_regularizer": null}}, {"inbound_nodes": [[["conv_pw_4_bn", 0, 0, {}]]], "name": "conv_pw_4_relu", "class_name": "ReLU", "config": {"name": "conv_pw_4_relu", "max_value": 6.0, "trainable": true}}, {"inbound_nodes": [[["conv_pw_4_relu", 0, 0, {}]]], "name": "conv_dw_5", "class_name": "DepthwiseConv2D", "config": {"depthwise_initializer": {"config": {"seed": null, "scale": 1.0, "mode": "fan_avg", "distribution": "uniform"}, "class_name": "VarianceScaling"}, "bias_regularizer": null, "depthwise_constraint": null, "depthwise_regularizer": null, "activation": "linear", "data_format": "channels_last", "trainable": true, "activity_regularizer": null, "name": "conv_dw_5", "kernel_size": [3, 3], "dilation_rate": [1, 1], "depth_multiplier": 1, "bias_initializer": {"config": {}, "class_name": "Zeros"}, "use_bias": false, "bias_constraint": null, "padding": "same", "strides": [1, 1]}}, {"inbound_nodes": [[["conv_dw_5", 0, 0, {}]]], "name": "conv_dw_5_bn", "class_name": "BatchNormalization", "config": {"center": true, "scale": true, "gamma_initializer": {"config": {}, "class_name": "Ones"}, "moving_variance_initializer": {"config": {}, "class_name": "Ones"}, "beta_constraint": null, "epsilon": 0.001, "momentum": 0.99, "moving_mean_initializer": {"config": {}, "class_name": "Zeros"}, "name": "conv_dw_5_bn", "gamma_regularizer": null, "beta_initializer": {"config": {}, "class_name": "Zeros"}, "gamma_constraint": null, "axis": -1, "trainable": true, "beta_regularizer": null}}, {"inbound_nodes": [[["conv_dw_5_bn", 0, 0, {}]]], "name": "conv_dw_5_relu", "class_name": "ReLU", "config": {"name": "conv_dw_5_relu", "max_value": 6.0, "trainable": true}}, {"inbound_nodes": [[["conv_dw_5_relu", 0, 0, {}]]], "name": "conv_pw_5", "class_name": "Conv2D", "config": {"strides": [1, 1], "bias_regularizer": null, "kernel_regularizer": null, "activation": "linear", "kernel_constraint": null, "data_format": "channels_last", "trainable": true, "activity_regularizer": null, "padding": "same", "kernel_initializer": {"config": {"seed": null, "scale": 1.0, "mode": "fan_avg", "distribution": "uniform"}, "class_name": "VarianceScaling"}, "dilation_rate": [1, 1], "name": "conv_pw_5", "bias_initializer": {"config": {}, "class_name": "Zeros"}, "filters": 256, "use_bias": false, "bias_constraint": null, "kernel_size": [1, 1]}}, {"inbound_nodes": [[["conv_pw_5", 0, 0, {}]]], "name": "conv_pw_5_bn", "class_name": "BatchNormalization", "config": {"center": true, "scale": true, "gamma_initializer": {"config": {}, "class_name": "Ones"}, "moving_variance_initializer": {"config": {}, "class_name": "Ones"}, "beta_constraint": null, "epsilon": 0.001, "momentum": 0.99, "moving_mean_initializer": {"config": {}, "class_name": "Zeros"}, "name": "conv_pw_5_bn", "gamma_regularizer": null, "beta_initializer": {"config": {}, "class_name": "Zeros"}, "gamma_constraint": null, "axis": -1, "trainable": true, "beta_regularizer": null}}, {"inbound_nodes": [[["conv_pw_5_bn", 0, 0, {}]]], "name": "conv_pw_5_relu", "class_name": "ReLU", "config": {"name": "conv_pw_5_relu", "max_value": 6.0, "trainable": true}}, {"inbound_nodes": [[["conv_pw_5_relu", 0, 0, {}]]], "name": "conv_pad_6", "class_name": "ZeroPadding2D", "config": {"data_format": "channels_last", "name": "conv_pad_6", "trainable": true, "padding": [[0, 1], [0, 1]]}}, {"inbound_nodes": [[["conv_pad_6", 0, 0, {}]]], "name": "conv_dw_6", "class_name": "DepthwiseConv2D", "config": {"depthwise_initializer": {"config": {"seed": null, "scale": 1.0, "mode": "fan_avg", "distribution": "uniform"}, "class_name": "VarianceScaling"}, "bias_regularizer": null, "depthwise_constraint": null, "depthwise_regularizer": null, "activation": "linear", "data_format": "channels_last", "trainable": true, "activity_regularizer": null, "name": "conv_dw_6", "kernel_size": [3, 3], "dilation_rate": [1, 1], "depth_multiplier": 1, "bias_initializer": {"config": {}, "class_name": "Zeros"}, "use_bias": false, "bias_constraint": null, "padding": "valid", "strides": [2, 2]}}, {"inbound_nodes": [[["conv_dw_6", 0, 0, {}]]], "name": "conv_dw_6_bn", "class_name": "BatchNormalization", "config": {"center": true, "scale": true, "gamma_initializer": {"config": {}, "class_name": "Ones"}, "moving_variance_initializer": {"config": {}, "class_name": "Ones"}, "beta_constraint": null, "epsilon": 0.001, "momentum": 0.99, "moving_mean_initializer": {"config": {}, "class_name": "Zeros"}, "name": "conv_dw_6_bn", "gamma_regularizer": null, "beta_initializer": {"config": {}, "class_name": "Zeros"}, "gamma_constraint": null, "axis": -1, "trainable": true, "beta_regularizer": null}}, {"inbound_nodes": [[["conv_dw_6_bn", 0, 0, {}]]], "name": "conv_dw_6_relu", "class_name": "ReLU", "config": {"name": "conv_dw_6_relu", "max_value": 6.0, "trainable": true}}, {"inbound_nodes": [[["conv_dw_6_relu", 0, 0, {}]]], "name": "conv_pw_6", "class_name": "Conv2D", "config": {"strides": [1, 1], "bias_regularizer": null, "kernel_regularizer": null, "activation": "linear", "kernel_constraint": null, "data_format": "channels_last", "trainable": true, "activity_regularizer": null, "padding": "same", "kernel_initializer": {"config": {"seed": null, "scale": 1.0, "mode": "fan_avg", "distribution": "uniform"}, "class_name": "VarianceScaling"}, "dilation_rate": [1, 1], "name": "conv_pw_6", "bias_initializer": {"config": {}, "class_name": "Zeros"}, "filters": 512, "use_bias": false, "bias_constraint": null, "kernel_size": [1, 1]}}, {"inbound_nodes": [[["conv_pw_6", 0, 0, {}]]], "name": "conv_pw_6_bn", "class_name": "BatchNormalization", "config": {"center": true, "scale": true, "gamma_initializer": {"config": {}, "class_name": "Ones"}, "moving_variance_initializer": {"config": {}, "class_name": "Ones"}, "beta_constraint": null, "epsilon": 0.001, "momentum": 0.99, "moving_mean_initializer": {"config": {}, "class_name": "Zeros"}, "name": "conv_pw_6_bn", "gamma_regularizer": null, "beta_initializer": {"config": {}, "class_name": "Zeros"}, "gamma_constraint": null, "axis": -1, "trainable": true, "beta_regularizer": null}}, {"inbound_nodes": [[["conv_pw_6_bn", 0, 0, {}]]], "name": "conv_pw_6_relu", "class_name": "ReLU", "config": {"name": "conv_pw_6_relu", "max_value": 6.0, "trainable": true}}, {"inbound_nodes": [[["conv_pw_6_relu", 0, 0, {}]]], "name": "conv_dw_7", "class_name": "DepthwiseConv2D", "config": {"depthwise_initializer": {"config": {"seed": null, "scale": 1.0, "mode": "fan_avg", "distribution": "uniform"}, "class_name": "VarianceScaling"}, "bias_regularizer": null, "depthwise_constraint": null, "depthwise_regularizer": null, "activation": "linear", "data_format": "channels_last", "trainable": true, "activity_regularizer": null, "name": "conv_dw_7", "kernel_size": [3, 3], "dilation_rate": [1, 1], "depth_multiplier": 1, "bias_initializer": {"config": {}, "class_name": "Zeros"}, "use_bias": false, "bias_constraint": null, "padding": "same", "strides": [1, 1]}}, {"inbound_nodes": [[["conv_dw_7", 0, 0, {}]]], "name": "conv_dw_7_bn", "class_name": "BatchNormalization", "config": {"center": true, "scale": true, "gamma_initializer": {"config": {}, "class_name": "Ones"}, "moving_variance_initializer": {"config": {}, "class_name": "Ones"}, "beta_constraint": null, "epsilon": 0.001, "momentum": 0.99, "moving_mean_initializer": {"config": {}, "class_name": "Zeros"}, "name": "conv_dw_7_bn", "gamma_regularizer": null, "beta_initializer": {"config": {}, "class_name": "Zeros"}, "gamma_constraint": null, "axis": -1, "trainable": true, "beta_regularizer": null}}, {"inbound_nodes": [[["conv_dw_7_bn", 0, 0, {}]]], "name": "conv_dw_7_relu", "class_name": "ReLU", "config": {"name": "conv_dw_7_relu", "max_value": 6.0, "trainable": true}}, {"inbound_nodes": [[["conv_dw_7_relu", 0, 0, {}]]], "name": "conv_pw_7", "class_name": "Conv2D", "config": {"strides": [1, 1], "bias_regularizer": null, "kernel_regularizer": null, "activation": "linear", "kernel_constraint": null, "data_format": "channels_last", "trainable": true, "activity_regularizer": null, "padding": "same", "kernel_initializer": {"config": {"seed": null, "scale": 1.0, "mode": "fan_avg", "distribution": "uniform"}, "class_name": "VarianceScaling"}, "dilation_rate": [1, 1], "name": "conv_pw_7", "bias_initializer": {"config": {}, "class_name": "Zeros"}, "filters": 512, "use_bias": false, "bias_constraint": null, "kernel_size": [1, 1]}}, {"inbound_nodes": [[["conv_pw_7", 0, 0, {}]]], "name": "conv_pw_7_bn", "class_name": "BatchNormalization", "config": {"center": true, "scale": true, "gamma_initializer": {"config": {}, "class_name": "Ones"}, "moving_variance_initializer": {"config": {}, "class_name": "Ones"}, "beta_constraint": null, "epsilon": 0.001, "momentum": 0.99, "moving_mean_initializer": {"config": {}, "class_name": "Zeros"}, "name": "conv_pw_7_bn", "gamma_regularizer": null, "beta_initializer": {"config": {}, "class_name": "Zeros"}, "gamma_constraint": null, "axis": -1, "trainable": true, "beta_regularizer": null}}, {"inbound_nodes": [[["conv_pw_7_bn", 0, 0, {}]]], "name": "conv_pw_7_relu", "class_name": "ReLU", "config": {"name": "conv_pw_7_relu", "max_value": 6.0, "trainable": true}}, {"inbound_nodes": [[["conv_pw_7_relu", 0, 0, {}]]], "name": "conv_dw_8", "class_name": "DepthwiseConv2D", "config": {"depthwise_initializer": {"config": {"seed": null, "scale": 1.0, "mode": "fan_avg", "distribution": "uniform"}, "class_name": "VarianceScaling"}, "bias_regularizer": null, "depthwise_constraint": null, "depthwise_regularizer": null, "activation": "linear", "data_format": "channels_last", "trainable": true, "activity_regularizer": null, "name": "conv_dw_8", "kernel_size": [3, 3], "dilation_rate": [1, 1], "depth_multiplier": 1, "bias_initializer": {"config": {}, "class_name": "Zeros"}, "use_bias": false, "bias_constraint": null, "padding": "same", "strides": [1, 1]}}, {"inbound_nodes": [[["conv_dw_8", 0, 0, {}]]], "name": "conv_dw_8_bn", "class_name": "BatchNormalization", "config": {"center": true, "scale": true, "gamma_initializer": {"config": {}, "class_name": "Ones"}, "moving_variance_initializer": {"config": {}, "class_name": "Ones"}, "beta_constraint": null, "epsilon": 0.001, "momentum": 0.99, "moving_mean_initializer": {"config": {}, "class_name": "Zeros"}, "name": "conv_dw_8_bn", "gamma_regularizer": null, "beta_initializer": {"config": {}, "class_name": "Zeros"}, "gamma_constraint": null, "axis": -1, "trainable": true, "beta_regularizer": null}}, {"inbound_nodes": [[["conv_dw_8_bn", 0, 0, {}]]], "name": "conv_dw_8_relu", "class_name": "ReLU", "config": {"name": "conv_dw_8_relu", "max_value": 6.0, "trainable": true}}, {"inbound_nodes": [[["conv_dw_8_relu", 0, 0, {}]]], "name": "conv_pw_8", "class_name": "Conv2D", "config": {"strides": [1, 1], "bias_regularizer": null, "kernel_regularizer": null, "activation": "linear", "kernel_constraint": null, "data_format": "channels_last", "trainable": true, "activity_regularizer": null, "padding": "same", "kernel_initializer": {"config": {"seed": null, "scale": 1.0, "mode": "fan_avg", "distribution": "uniform"}, "class_name": "VarianceScaling"}, "dilation_rate": [1, 1], "name": "conv_pw_8", "bias_initializer": {"config": {}, "class_name": "Zeros"}, "filters": 512, "use_bias": false, "bias_constraint": null, "kernel_size": [1, 1]}}, {"inbound_nodes": [[["conv_pw_8", 0, 0, {}]]], "name": "conv_pw_8_bn", "class_name": "BatchNormalization", "config": {"center": true, "scale": true, "gamma_initializer": {"config": {}, "class_name": "Ones"}, "moving_variance_initializer": {"config": {}, "class_name": "Ones"}, "beta_constraint": null, "epsilon": 0.001, "momentum": 0.99, "moving_mean_initializer": {"config": {}, "class_name": "Zeros"}, "name": "conv_pw_8_bn", "gamma_regularizer": null, "beta_initializer": {"config": {}, "class_name": "Zeros"}, "gamma_constraint": null, "axis": -1, "trainable": true, "beta_regularizer": null}}, {"inbound_nodes": [[["conv_pw_8_bn", 0, 0, {}]]], "name": "conv_pw_8_relu", "class_name": "ReLU", "config": {"name": "conv_pw_8_relu", "max_value": 6.0, "trainable": true}}, {"inbound_nodes": [[["conv_pw_8_relu", 0, 0, {}]]], "name": "conv_dw_9", "class_name": "DepthwiseConv2D", "config": {"depthwise_initializer": {"config": {"seed": null, "scale": 1.0, "mode": "fan_avg", "distribution": "uniform"}, "class_name": "VarianceScaling"}, "bias_regularizer": null, "depthwise_constraint": null, "depthwise_regularizer": null, "activation": "linear", "data_format": "channels_last", "trainable": true, "activity_regularizer": null, "name": "conv_dw_9", "kernel_size": [3, 3], "dilation_rate": [1, 1], "depth_multiplier": 1, "bias_initializer": {"config": {}, "class_name": "Zeros"}, "use_bias": false, "bias_constraint": null, "padding": "same", "strides": [1, 1]}}, {"inbound_nodes": [[["conv_dw_9", 0, 0, {}]]], "name": "conv_dw_9_bn", "class_name": "BatchNormalization", "config": {"center": true, "scale": true, "gamma_initializer": {"config": {}, "class_name": "Ones"}, "moving_variance_initializer": {"config": {}, "class_name": "Ones"}, "beta_constraint": null, "epsilon": 0.001, "momentum": 0.99, "moving_mean_initializer": {"config": {}, "class_name": "Zeros"}, "name": "conv_dw_9_bn", "gamma_regularizer": null, "beta_initializer": {"config": {}, "class_name": "Zeros"}, "gamma_constraint": null, "axis": -1, "trainable": true, "beta_regularizer": null}}, {"inbound_nodes": [[["conv_dw_9_bn", 0, 0, {}]]], "name": "conv_dw_9_relu", "class_name": "ReLU", "config": {"name": "conv_dw_9_relu", "max_value": 6.0, "trainable": true}}, {"inbound_nodes": [[["conv_dw_9_relu", 0, 0, {}]]], "name": "conv_pw_9", "class_name": "Conv2D", "config": {"strides": [1, 1], "bias_regularizer": null, "kernel_regularizer": null, "activation": "linear", "kernel_constraint": null, "data_format": "channels_last", "trainable": true, "activity_regularizer": null, "padding": "same", "kernel_initializer": {"config": {"seed": null, "scale": 1.0, "mode": "fan_avg", "distribution": "uniform"}, "class_name": "VarianceScaling"}, "dilation_rate": [1, 1], "name": "conv_pw_9", "bias_initializer": {"config": {}, "class_name": "Zeros"}, "filters": 512, "use_bias": false, "bias_constraint": null, "kernel_size": [1, 1]}}, {"inbound_nodes": [[["conv_pw_9", 0, 0, {}]]], "name": "conv_pw_9_bn", "class_name": "BatchNormalization", "config": {"center": true, "scale": true, "gamma_initializer": {"config": {}, "class_name": "Ones"}, "moving_variance_initializer": {"config": {}, "class_name": "Ones"}, "beta_constraint": null, "epsilon": 0.001, "momentum": 0.99, "moving_mean_initializer": {"config": {}, "class_name": "Zeros"}, "name": "conv_pw_9_bn", "gamma_regularizer": null, "beta_initializer": {"config": {}, "class_name": "Zeros"}, "gamma_constraint": null, "axis": -1, "trainable": true, "beta_regularizer": null}}, {"inbound_nodes": [[["conv_pw_9_bn", 0, 0, {}]]], "name": "conv_pw_9_relu", "class_name": "ReLU", "config": {"name": "conv_pw_9_relu", "max_value": 6.0, "trainable": true}}, {"inbound_nodes": [[["conv_pw_9_relu", 0, 0, {}]]], "name": "conv_dw_10", "class_name": "DepthwiseConv2D", "config": {"depthwise_initializer": {"config": {"seed": null, "scale": 1.0, "mode": "fan_avg", "distribution": "uniform"}, "class_name": "VarianceScaling"}, "bias_regularizer": null, "depthwise_constraint": null, "depthwise_regularizer": null, "activation": "linear", "data_format": "channels_last", "trainable": true, "activity_regularizer": null, "name": "conv_dw_10", "kernel_size": [3, 3], "dilation_rate": [1, 1], "depth_multiplier": 1, "bias_initializer": {"config": {}, "class_name": "Zeros"}, "use_bias": false, "bias_constraint": null, "padding": "same", "strides": [1, 1]}}, {"inbound_nodes": [[["conv_dw_10", 0, 0, {}]]], "name": "conv_dw_10_bn", "class_name": "BatchNormalization", "config": {"center": true, "scale": true, "gamma_initializer": {"config": {}, "class_name": "Ones"}, "moving_variance_initializer": {"config": {}, "class_name": "Ones"}, "beta_constraint": null, "epsilon": 0.001, "momentum": 0.99, "moving_mean_initializer": {"config": {}, "class_name": "Zeros"}, "name": "conv_dw_10_bn", "gamma_regularizer": null, "beta_initializer": {"config": {}, "class_name": "Zeros"}, "gamma_constraint": null, "axis": -1, "trainable": true, "beta_regularizer": null}}, {"inbound_nodes": [[["conv_dw_10_bn", 0, 0, {}]]], "name": "conv_dw_10_relu", "class_name": "ReLU", "config": {"name": "conv_dw_10_relu", "max_value": 6.0, "trainable": true}}, {"inbound_nodes": [[["conv_dw_10_relu", 0, 0, {}]]], "name": "conv_pw_10", "class_name": "Conv2D", "config": {"strides": [1, 1], "bias_regularizer": null, "kernel_regularizer": null, "activation": "linear", "kernel_constraint": null, "data_format": "channels_last", "trainable": true, "activity_regularizer": null, "padding": "same", "kernel_initializer": {"config": {"seed": null, "scale": 1.0, "mode": "fan_avg", "distribution": "uniform"}, "class_name": "VarianceScaling"}, "dilation_rate": [1, 1], "name": "conv_pw_10", "bias_initializer": {"config": {}, "class_name": "Zeros"}, "filters": 512, "use_bias": false, "bias_constraint": null, "kernel_size": [1, 1]}}, {"inbound_nodes": [[["conv_pw_10", 0, 0, {}]]], "name": "conv_pw_10_bn", "class_name": "BatchNormalization", "config": {"center": true, "scale": true, "gamma_initializer": {"config": {}, "class_name": "Ones"}, "moving_variance_initializer": {"config": {}, "class_name": "Ones"}, "beta_constraint": null, "epsilon": 0.001, "momentum": 0.99, "moving_mean_initializer": {"config": {}, "class_name": "Zeros"}, "name": "conv_pw_10_bn", "gamma_regularizer": null, "beta_initializer": {"config": {}, "class_name": "Zeros"}, "gamma_constraint": null, "axis": -1, "trainable": true, "beta_regularizer": null}}, {"inbound_nodes": [[["conv_pw_10_bn", 0, 0, {}]]], "name": "conv_pw_10_relu", "class_name": "ReLU", "config": {"name": "conv_pw_10_relu", "max_value": 6.0, "trainable": true}}, {"inbound_nodes": [[["conv_pw_10_relu", 0, 0, {}]]], "name": "conv_dw_11", "class_name": "DepthwiseConv2D", "config": {"depthwise_initializer": {"config": {"seed": null, "scale": 1.0, "mode": "fan_avg", "distribution": "uniform"}, "class_name": "VarianceScaling"}, "bias_regularizer": null, "depthwise_constraint": null, "depthwise_regularizer": null, "activation": "linear", "data_format": "channels_last", "trainable": true, "activity_regularizer": null, "name": "conv_dw_11", "kernel_size": [3, 3], "dilation_rate": [1, 1], "depth_multiplier": 1, "bias_initializer": {"config": {}, "class_name": "Zeros"}, "use_bias": false, "bias_constraint": null, "padding": "same", "strides": [1, 1]}}, {"inbound_nodes": [[["conv_dw_11", 0, 0, {}]]], "name": "conv_dw_11_bn", "class_name": "BatchNormalization", "config": {"center": true, "scale": true, "gamma_initializer": {"config": {}, "class_name": "Ones"}, "moving_variance_initializer": {"config": {}, "class_name": "Ones"}, "beta_constraint": null, "epsilon": 0.001, "momentum": 0.99, "moving_mean_initializer": {"config": {}, "class_name": "Zeros"}, "name": "conv_dw_11_bn", "gamma_regularizer": null, "beta_initializer": {"config": {}, "class_name": "Zeros"}, "gamma_constraint": null, "axis": -1, "trainable": true, "beta_regularizer": null}}, {"inbound_nodes": [[["conv_dw_11_bn", 0, 0, {}]]], "name": "conv_dw_11_relu", "class_name": "ReLU", "config": {"name": "conv_dw_11_relu", "max_value": 6.0, "trainable": true}}, {"inbound_nodes": [[["conv_dw_11_relu", 0, 0, {}]]], "name": "conv_pw_11", "class_name": "Conv2D", "config": {"strides": [1, 1], "bias_regularizer": null, "kernel_regularizer": null, "activation": "linear", "kernel_constraint": null, "data_format": "channels_last", "trainable": true, "activity_regularizer": null, "padding": "same", "kernel_initializer": {"config": {"seed": null, "scale": 1.0, "mode": "fan_avg", "distribution": "uniform"}, "class_name": "VarianceScaling"}, "dilation_rate": [1, 1], "name": "conv_pw_11", "bias_initializer": {"config": {}, "class_name": "Zeros"}, "filters": 512, "use_bias": false, "bias_constraint": null, "kernel_size": [1, 1]}}, {"inbound_nodes": [[["conv_pw_11", 0, 0, {}]]], "name": "conv_pw_11_bn", "class_name": "BatchNormalization", "config": {"center": true, "scale": true, "gamma_initializer": {"config": {}, "class_name": "Ones"}, "moving_variance_initializer": {"config": {}, "class_name": "Ones"}, "beta_constraint": null, "epsilon": 0.001, "momentum": 0.99, "moving_mean_initializer": {"config": {}, "class_name": "Zeros"}, "name": "conv_pw_11_bn", "gamma_regularizer": null, "beta_initializer": {"config": {}, "class_name": "Zeros"}, "gamma_constraint": null, "axis": -1, "trainable": true, "beta_regularizer": null}}, {"inbound_nodes": [[["conv_pw_11_bn", 0, 0, {}]]], "name": "conv_pw_11_relu", "class_name": "ReLU", "config": {"name": "conv_pw_11_relu", "max_value": 6.0, "trainable": true}}, {"inbound_nodes": [[["conv_pw_11_relu", 0, 0, {}]]], "name": "conv_pad_12", "class_name": "ZeroPadding2D", "config": {"data_format": "channels_last", "name": "conv_pad_12", "trainable": true, "padding": [[0, 1], [0, 1]]}}, {"inbound_nodes": [[["conv_pad_12", 0, 0, {}]]], "name": "conv_dw_12", "class_name": "DepthwiseConv2D", "config": {"depthwise_initializer": {"config": {"seed": null, "scale": 1.0, "mode": "fan_avg", "distribution": "uniform"}, "class_name": "VarianceScaling"}, "bias_regularizer": null, "depthwise_constraint": null, "depthwise_regularizer": null, "activation": "linear", "data_format": "channels_last", "trainable": true, "activity_regularizer": null, "name": "conv_dw_12", "kernel_size": [3, 3], "dilation_rate": [1, 1], "depth_multiplier": 1, "bias_initializer": {"config": {}, "class_name": "Zeros"}, "use_bias": false, "bias_constraint": null, "padding": "valid", "strides": [2, 2]}}, {"inbound_nodes": [[["conv_dw_12", 0, 0, {}]]], "name": "conv_dw_12_bn", "class_name": "BatchNormalization", "config": {"center": true, "scale": true, "gamma_initializer": {"config": {}, "class_name": "Ones"}, "moving_variance_initializer": {"config": {}, "class_name": "Ones"}, "beta_constraint": null, "epsilon": 0.001, "momentum": 0.99, "moving_mean_initializer": {"config": {}, "class_name": "Zeros"}, "name": "conv_dw_12_bn", "gamma_regularizer": null, "beta_initializer": {"config": {}, "class_name": "Zeros"}, "gamma_constraint": null, "axis": -1, "trainable": true, "beta_regularizer": null}}, {"inbound_nodes": [[["conv_dw_12_bn", 0, 0, {}]]], "name": "conv_dw_12_relu", "class_name": "ReLU", "config": {"name": "conv_dw_12_relu", "max_value": 6.0, "trainable": true}}, {"inbound_nodes": [[["conv_dw_12_relu", 0, 0, {}]]], "name": "conv_pw_12", "class_name": "Conv2D", "config": {"strides": [1, 1], "bias_regularizer": null, "kernel_regularizer": null, "activation": "linear", "kernel_constraint": null, "data_format": "channels_last", "trainable": true, "activity_regularizer": null, "padding": "same", "kernel_initializer": {"config": {"seed": null, "scale": 1.0, "mode": "fan_avg", "distribution": "uniform"}, "class_name": "VarianceScaling"}, "dilation_rate": [1, 1], "name": "conv_pw_12", "bias_initializer": {"config": {}, "class_name": "Zeros"}, "filters": 1024, "use_bias": false, "bias_constraint": null, "kernel_size": [1, 1]}}, {"inbound_nodes": [[["conv_pw_12", 0, 0, {}]]], "name": "conv_pw_12_bn", "class_name": "BatchNormalization", "config": {"center": true, "scale": true, "gamma_initializer": {"config": {}, "class_name": "Ones"}, "moving_variance_initializer": {"config": {}, "class_name": "Ones"}, "beta_constraint": null, "epsilon": 0.001, "momentum": 0.99, "moving_mean_initializer": {"config": {}, "class_name": "Zeros"}, "name": "conv_pw_12_bn", "gamma_regularizer": null, "beta_initializer": {"config": {}, "class_name": "Zeros"}, "gamma_constraint": null, "axis": -1, "trainable": true, "beta_regularizer": null}}, {"inbound_nodes": [[["conv_pw_12_bn", 0, 0, {}]]], "name": "conv_pw_12_relu", "class_name": "ReLU", "config": {"name": "conv_pw_12_relu", "max_value": 6.0, "trainable": true}}, {"inbound_nodes": [[["conv_pw_12_relu", 0, 0, {}]]], "name": "conv_dw_13", "class_name": "DepthwiseConv2D", "config": {"depthwise_initializer": {"config": {"seed": null, "scale": 1.0, "mode": "fan_avg", "distribution": "uniform"}, "class_name": "VarianceScaling"}, "bias_regularizer": null, "depthwise_constraint": null, "depthwise_regularizer": null, "activation": "linear", "data_format": "channels_last", "trainable": true, "activity_regularizer": null, "name": "conv_dw_13", "kernel_size": [3, 3], "dilation_rate": [1, 1], "depth_multiplier": 1, "bias_initializer": {"config": {}, "class_name": "Zeros"}, "use_bias": false, "bias_constraint": null, "padding": "same", "strides": [1, 1]}}, {"inbound_nodes": [[["conv_dw_13", 0, 0, {}]]], "name": "conv_dw_13_bn", "class_name": "BatchNormalization", "config": {"center": true, "scale": true, "gamma_initializer": {"config": {}, "class_name": "Ones"}, "moving_variance_initializer": {"config": {}, "class_name": "Ones"}, "beta_constraint": null, "epsilon": 0.001, "momentum": 0.99, "moving_mean_initializer": {"config": {}, "class_name": "Zeros"}, "name": "conv_dw_13_bn", "gamma_regularizer": null, "beta_initializer": {"config": {}, "class_name": "Zeros"}, "gamma_constraint": null, "axis": -1, "trainable": true, "beta_regularizer": null}}, {"inbound_nodes": [[["conv_dw_13_bn", 0, 0, {}]]], "name": "conv_dw_13_relu", "class_name": "ReLU", "config": {"name": "conv_dw_13_relu", "max_value": 6.0, "trainable": true}}, {"inbound_nodes": [[["conv_dw_13_relu", 0, 0, {}]]], "name": "conv_pw_13", "class_name": "Conv2D", "config": {"strides": [1, 1], "bias_regularizer": null, "kernel_regularizer": null, "activation": "linear", "kernel_constraint": null, "data_format": "channels_last", "trainable": true, "activity_regularizer": null, "padding": "same", "kernel_initializer": {"config": {"seed": null, "scale": 1.0, "mode": "fan_avg", "distribution": "uniform"}, "class_name": "VarianceScaling"}, "dilation_rate": [1, 1], "name": "conv_pw_13", "bias_initializer": {"config": {}, "class_name": "Zeros"}, "filters": 1024, "use_bias": false, "bias_constraint": null, "kernel_size": [1, 1]}}, {"inbound_nodes": [[["conv_pw_13", 0, 0, {}]]], "name": "conv_pw_13_bn", "class_name": "BatchNormalization", "config": {"center": true, "scale": true, "gamma_initializer": {"config": {}, "class_name": "Ones"}, "moving_variance_initializer": {"config": {}, "class_name": "Ones"}, "beta_constraint": null, "epsilon": 0.001, "momentum": 0.99, "moving_mean_initializer": {"config": {}, "class_name": "Zeros"}, "name": "conv_pw_13_bn", "gamma_regularizer": null, "beta_initializer": {"config": {}, "class_name": "Zeros"}, "gamma_constraint": null, "axis": -1, "trainable": true, "beta_regularizer": null}}, {"inbound_nodes": [[["conv_pw_13_bn", 0, 0, {}]]], "name": "conv_pw_13_relu", "class_name": "ReLU", "config": {"name": "conv_pw_13_relu", "max_value": 6.0, "trainable": true}}, {"inbound_nodes": [[["conv_pw_13_relu", 0, 0, {}]]], "name": "global_average_pooling2d_1", "class_name": "GlobalAveragePooling2D", "config": {"data_format": "channels_last", "name": "global_average_pooling2d_1", "trainable": true}}, {"inbound_nodes": [[["global_average_pooling2d_1", 0, 0, {}]]], "name": "softmax", "class_name": "Dense", "config": {"activation": "softmax", "kernel_regularizer": null, "kernel_constraint": null, "units": 8, "trainable": true, "activity_regularizer": null, "kernel_initializer": {"config": {"seed": null, "scale": 1.0, "mode": "fan_avg", "distribution": "uniform"}, "class_name": "VarianceScaling"}, "name": "softmax", "bias_initializer": {"config": {}, "class_name": "Zeros"}, "use_bias": true, "bias_constraint": null, "bias_regularizer": null}}], "output_layers": [["softmax", 0, 0]], "name": "model_1", "input_layers": [["input_1", 0, 0]]}, "class_name": "Model", "backend": "tensorflow", "keras_version": "2.2.2"}