{"backend": "tensorflow", "config": {"name": "model_1", "layers": [{"config": {"batch_input_shape": [null, 100, 100, 3], "name": "input_1", "dtype": "float32", "sparse": false}, "name": "input_1", "class_name": "InputLayer", "inbound_nodes": []}, {"config": {"trainable": true, "name": "conv1_pad", "padding": [[0, 1], [0, 1]], "data_format": "channels_last"}, "name": "conv1_pad", "class_name": "ZeroPadding2D", "inbound_nodes": [[["input_1", 0, 0, {}]]]}, {"config": {"kernel_regularizer": null, "dilation_rate": [1, 1], "kernel_size": [3, 3], "kernel_constraint": null, "filters": 32, "use_bias": false, "padding": "valid", "activity_regularizer": null, "strides": [2, 2], "activation": "linear", "name": "conv1", "kernel_initializer": {"config": {"seed": null, "distribution": "uniform", "scale": 1.0, "mode": "fan_avg"}, "class_name": "VarianceScaling"}, "data_format": "channels_last", "bias_initializer": {"config": {}, "class_name": "Zeros"}, "trainable": true, "bias_regularizer": null, "bias_constraint": null}, "name": "conv1", "class_name": "Conv2D", "inbound_nodes": [[["conv1_pad", 0, 0, {}]]]}, {"config": {"moving_mean_initializer": {"config": {}, "class_name": "Zeros"}, "gamma_constraint": null, "axis": -1, "momentum": 0.99, "gamma_initializer": {"config": {}, "class_name": "Ones"}, "name": "conv1_bn", "beta_regularizer": null, "gamma_regularizer": null, "moving_variance_initializer": {"config": {}, "class_name": "Ones"}, "center": true, "trainable": true, "epsilon": 0.001, "scale": true, "beta_constraint": null, "beta_initializer": {"config": {}, "class_name": "Zeros"}}, "name": "conv1_bn", "class_name": "BatchNormalization", "inbound_nodes": [[["conv1", 0, 0, {}]]]}, {"config": {"max_value": 6.0, "trainable": true, "name": "conv1_relu"}, "name": "conv1_relu", "class_name": "ReLU", "inbound_nodes": [[["conv1_bn", 0, 0, {}]]]}, {"config": {"depthwise_initializer": {"config": {"seed": null, "distribution": "uniform", "scale": 1.0, "mode": "fan_avg"}, "class_name": "VarianceScaling"}, "dilation_rate": [1, 1], "depth_multiplier": 1, "kernel_size": [3, 3], "bias_regularizer": null, "data_format": "channels_last", "use_bias": false, "activity_regularizer": null, "strides": [1, 1], "padding": "same", "activation": "linear", "name": "conv_dw_1", "depthwise_constraint": null, "bias_initializer": {"config": {}, "class_name": "Zeros"}, "trainable": true, "depthwise_regularizer": null, "bias_constraint": null}, "name": "conv_dw_1", "class_name": "DepthwiseConv2D", "inbound_nodes": [[["conv1_relu", 0, 0, {}]]]}, {"config": {"moving_mean_initializer": {"config": {}, "class_name": "Zeros"}, "gamma_constraint": null, "axis": -1, "momentum": 0.99, "gamma_initializer": {"config": {}, "class_name": "Ones"}, "name": "conv_dw_1_bn", "beta_regularizer": null, "gamma_regularizer": null, "moving_variance_initializer": {"config": {}, "class_name": "Ones"}, "center": true, "trainable": true, "epsilon": 0.001, "scale": true, "beta_constraint": null, "beta_initializer": {"config": {}, "class_name": "Zeros"}}, "name": "conv_dw_1_bn", "class_name": "BatchNormalization", "inbound_nodes": [[["conv_dw_1", 0, 0, {}]]]}, {"config": {"max_value": 6.0, "trainable": true, "name": "conv_dw_1_relu"}, "name": "conv_dw_1_relu", "class_name": "ReLU", "inbound_nodes": [[["conv_dw_1_bn", 0, 0, {}]]]}, {"config": {"kernel_regularizer": null, "dilation_rate": [1, 1], "kernel_size": [1, 1], "kernel_constraint": null, "filters": 64, "use_bias": false, "padding": "same", "activity_regularizer": null, "strides": [1, 1], "activation": "linear", "name": "conv_pw_1", "kernel_initializer": {"config": {"seed": null, "distribution": "uniform", "scale": 1.0, "mode": "fan_avg"}, "class_name": "VarianceScaling"}, "data_format": "channels_last", "bias_initializer": {"config": {}, "class_name": "Zeros"}, "trainable": true, "bias_regularizer": null, "bias_constraint": null}, "name": "conv_pw_1", "class_name": "Conv2D", "inbound_nodes": [[["conv_dw_1_relu", 0, 0, {}]]]}, {"config": {"moving_mean_initializer": {"config": {}, "class_name": "Zeros"}, "gamma_constraint": null, "axis": -1, "momentum": 0.99, "gamma_initializer": {"config": {}, "class_name": "Ones"}, "name": "conv_pw_1_bn", "beta_regularizer": null, "gamma_regularizer": null, "moving_variance_initializer": {"config": {}, "class_name": "Ones"}, "center": true, "trainable": true, "epsilon": 0.001, "scale": true, "beta_constraint": null, "beta_initializer": {"config": {}, "class_name": "Zeros"}}, "name": "conv_pw_1_bn", "class_name": "BatchNormalization", "inbound_nodes": [[["conv_pw_1", 0, 0, {}]]]}, {"config": {"max_value": 6.0, "trainable": true, "name": "conv_pw_1_relu"}, "name": "conv_pw_1_relu", "class_name": "ReLU", "inbound_nodes": [[["conv_pw_1_bn", 0, 0, {}]]]}, {"config": {"trainable": true, "name": "conv_pad_2", "padding": [[0, 1], [0, 1]], "data_format": "channels_last"}, "name": "conv_pad_2", "class_name": "ZeroPadding2D", "inbound_nodes": [[["conv_pw_1_relu", 0, 0, {}]]]}, {"config": {"depthwise_initializer": {"config": {"seed": null, "distribution": "uniform", "scale": 1.0, "mode": "fan_avg"}, "class_name": "VarianceScaling"}, "dilation_rate": [1, 1], "depth_multiplier": 1, "kernel_size": [3, 3], "bias_regularizer": null, "data_format": "channels_last", "use_bias": false, "activity_regularizer": null, "strides": [2, 2], "padding": "valid", "activation": "linear", "name": "conv_dw_2", "depthwise_constraint": null, "bias_initializer": {"config": {}, "class_name": "Zeros"}, "trainable": true, "depthwise_regularizer": null, "bias_constraint": null}, "name": "conv_dw_2", "class_name": "DepthwiseConv2D", "inbound_nodes": [[["conv_pad_2", 0, 0, {}]]]}, {"config": {"moving_mean_initializer": {"config": {}, "class_name": "Zeros"}, "gamma_constraint": null, "axis": -1, "momentum": 0.99, "gamma_initializer": {"config": {}, "class_name": "Ones"}, "name": "conv_dw_2_bn", "beta_regularizer": null, "gamma_regularizer": null, "moving_variance_initializer": {"config": {}, "class_name": "Ones"}, "center": true, "trainable": true, "epsilon": 0.001, "scale": true, "beta_constraint": null, "beta_initializer": {"config": {}, "class_name": "Zeros"}}, "name": "conv_dw_2_bn", "class_name": "BatchNormalization", "inbound_nodes": [[["conv_dw_2", 0, 0, {}]]]}, {"config": {"max_value": 6.0, "trainable": true, "name": "conv_dw_2_relu"}, "name": "conv_dw_2_relu", "class_name": "ReLU", "inbound_nodes": [[["conv_dw_2_bn", 0, 0, {}]]]}, {"config": {"kernel_regularizer": null, "dilation_rate": [1, 1], "kernel_size": [1, 1], "kernel_constraint": null, "filters": 128, "use_bias": false, "padding": "same", "activity_regularizer": null, "strides": [1, 1], "activation": "linear", "name": "conv_pw_2", "kernel_initializer": {"config": {"seed": null, "distribution": "uniform", "scale": 1.0, "mode": "fan_avg"}, "class_name": "VarianceScaling"}, "data_format": "channels_last", "bias_initializer": {"config": {}, "class_name": "Zeros"}, "trainable": true, "bias_regularizer": null, "bias_constraint": null}, "name": "conv_pw_2", "class_name": "Conv2D", "inbound_nodes": [[["conv_dw_2_relu", 0, 0, {}]]]}, {"config": {"moving_mean_initializer": {"config": {}, "class_name": "Zeros"}, "gamma_constraint": null, "axis": -1, "momentum": 0.99, "gamma_initializer": {"config": {}, "class_name": "Ones"}, "name": "conv_pw_2_bn", "beta_regularizer": null, "gamma_regularizer": null, "moving_variance_initializer": {"config": {}, "class_name": "Ones"}, "center": true, "trainable": true, "epsilon": 0.001, "scale": true, "beta_constraint": null, "beta_initializer": {"config": {}, "class_name": "Zeros"}}, "name": "conv_pw_2_bn", "class_name": "BatchNormalization", "inbound_nodes": [[["conv_pw_2", 0, 0, {}]]]}, {"config": {"max_value": 6.0, "trainable": true, "name": "conv_pw_2_relu"}, "name": "conv_pw_2_relu", "class_name": "ReLU", "inbound_nodes": [[["conv_pw_2_bn", 0, 0, {}]]]}, {"config": {"depthwise_initializer": {"config": {"seed": null, "distribution": "uniform", "scale": 1.0, "mode": "fan_avg"}, "class_name": "VarianceScaling"}, "dilation_rate": [1, 1], "depth_multiplier": 1, "kernel_size": [3, 3], "bias_regularizer": null, "data_format": "channels_last", "use_bias": false, "activity_regularizer": null, "strides": [1, 1], "padding": "same", "activation": "linear", "name": "conv_dw_3", "depthwise_constraint": null, "bias_initializer": {"config": {}, "class_name": "Zeros"}, "trainable": true, "depthwise_regularizer": null, "bias_constraint": null}, "name": "conv_dw_3", "class_name": "DepthwiseConv2D", "inbound_nodes": [[["conv_pw_2_relu", 0, 0, {}]]]}, {"config": {"moving_mean_initializer": {"config": {}, "class_name": "Zeros"}, "gamma_constraint": null, "axis": -1, "momentum": 0.99, "gamma_initializer": {"config": {}, "class_name": "Ones"}, "name": "conv_dw_3_bn", "beta_regularizer": null, "gamma_regularizer": null, "moving_variance_initializer": {"config": {}, "class_name": "Ones"}, "center": true, "trainable": true, "epsilon": 0.001, "scale": true, "beta_constraint": null, "beta_initializer": {"config": {}, "class_name": "Zeros"}}, "name": "conv_dw_3_bn", "class_name": "BatchNormalization", "inbound_nodes": [[["conv_dw_3", 0, 0, {}]]]}, {"config": {"max_value": 6.0, "trainable": true, "name": "conv_dw_3_relu"}, "name": "conv_dw_3_relu", "class_name": "ReLU", "inbound_nodes": [[["conv_dw_3_bn", 0, 0, {}]]]}, {"config": {"kernel_regularizer": null, "dilation_rate": [1, 1], "kernel_size": [1, 1], "kernel_constraint": null, "filters": 128, "use_bias": false, "padding": "same", "activity_regularizer": null, "strides": [1, 1], "activation": "linear", "name": "conv_pw_3", "kernel_initializer": {"config": {"seed": null, "distribution": "uniform", "scale": 1.0, "mode": "fan_avg"}, "class_name": "VarianceScaling"}, "data_format": "channels_last", "bias_initializer": {"config": {}, "class_name": "Zeros"}, "trainable": true, "bias_regularizer": null, "bias_constraint": null}, "name": "conv_pw_3", "class_name": "Conv2D", "inbound_nodes": [[["conv_dw_3_relu", 0, 0, {}]]]}, {"config": {"moving_mean_initializer": {"config": {}, "class_name": "Zeros"}, "gamma_constraint": null, "axis": -1, "momentum": 0.99, "gamma_initializer": {"config": {}, "class_name": "Ones"}, "name": "conv_pw_3_bn", "beta_regularizer": null, "gamma_regularizer": null, "moving_variance_initializer": {"config": {}, "class_name": "Ones"}, "center": true, "trainable": true, "epsilon": 0.001, "scale": true, "beta_constraint": null, "beta_initializer": {"config": {}, "class_name": "Zeros"}}, "name": "conv_pw_3_bn", "class_name": "BatchNormalization", "inbound_nodes": [[["conv_pw_3", 0, 0, {}]]]}, {"config": {"max_value": 6.0, "trainable": true, "name": "conv_pw_3_relu"}, "name": "conv_pw_3_relu", "class_name": "ReLU", "inbound_nodes": [[["conv_pw_3_bn", 0, 0, {}]]]}, {"config": {"trainable": true, "name": "conv_pad_4", "padding": [[0, 1], [0, 1]], "data_format": "channels_last"}, "name": "conv_pad_4", "class_name": "ZeroPadding2D", "inbound_nodes": [[["conv_pw_3_relu", 0, 0, {}]]]}, {"config": {"depthwise_initializer": {"config": {"seed": null, "distribution": "uniform", "scale": 1.0, "mode": "fan_avg"}, "class_name": "VarianceScaling"}, "dilation_rate": [1, 1], "depth_multiplier": 1, "kernel_size": [3, 3], "bias_regularizer": null, "data_format": "channels_last", "use_bias": false, "activity_regularizer": null, "strides": [2, 2], "padding": "valid", "activation": "linear", "name": "conv_dw_4", "depthwise_constraint": null, "bias_initializer": {"config": {}, "class_name": "Zeros"}, "trainable": true, "depthwise_regularizer": null, "bias_constraint": null}, "name": "conv_dw_4", "class_name": "DepthwiseConv2D", "inbound_nodes": [[["conv_pad_4", 0, 0, {}]]]}, {"config": {"moving_mean_initializer": {"config": {}, "class_name": "Zeros"}, "gamma_constraint": null, "axis": -1, "momentum": 0.99, "gamma_initializer": {"config": {}, "class_name": "Ones"}, "name": "conv_dw_4_bn", "beta_regularizer": null, "gamma_regularizer": null, "moving_variance_initializer": {"config": {}, "class_name": "Ones"}, "center": true, "trainable": true, "epsilon": 0.001, "scale": true, "beta_constraint": null, "beta_initializer": {"config": {}, "class_name": "Zeros"}}, "name": "conv_dw_4_bn", "class_name": "BatchNormalization", "inbound_nodes": [[["conv_dw_4", 0, 0, {}]]]}, {"config": {"max_value": 6.0, "trainable": true, "name": "conv_dw_4_relu"}, "name": "conv_dw_4_relu", "class_name": "ReLU", "inbound_nodes": [[["conv_dw_4_bn", 0, 0, {}]]]}, {"config": {"kernel_regularizer": null, "dilation_rate": [1, 1], "kernel_size": [1, 1], "kernel_constraint": null, "filters": 256, "use_bias": false, "padding": "same", "activity_regularizer": null, "strides": [1, 1], "activation": "linear", "name": "conv_pw_4", "kernel_initializer": {"config": {"seed": null, "distribution": "uniform", "scale": 1.0, "mode": "fan_avg"}, "class_name": "VarianceScaling"}, "data_format": "channels_last", "bias_initializer": {"config": {}, "class_name": "Zeros"}, "trainable": true, "bias_regularizer": null, "bias_constraint": null}, "name": "conv_pw_4", "class_name": "Conv2D", "inbound_nodes": [[["conv_dw_4_relu", 0, 0, {}]]]}, {"config": {"moving_mean_initializer": {"config": {}, "class_name": "Zeros"}, "gamma_constraint": null, "axis": -1, "momentum": 0.99, "gamma_initializer": {"config": {}, "class_name": "Ones"}, "name": "conv_pw_4_bn", "beta_regularizer": null, "gamma_regularizer": null, "moving_variance_initializer": {"config": {}, "class_name": "Ones"}, "center": true, "trainable": true, "epsilon": 0.001, "scale": true, "beta_constraint": null, "beta_initializer": {"config": {}, "class_name": "Zeros"}}, "name": "conv_pw_4_bn", "class_name": "BatchNormalization", "inbound_nodes": [[["conv_pw_4", 0, 0, {}]]]}, {"config": {"max_value": 6.0, "trainable": true, "name": "conv_pw_4_relu"}, "name": "conv_pw_4_relu", "class_name": "ReLU", "inbound_nodes": [[["conv_pw_4_bn", 0, 0, {}]]]}, {"config": {"depthwise_initializer": {"config": {"seed": null, "distribution": "uniform", "scale": 1.0, "mode": "fan_avg"}, "class_name": "VarianceScaling"}, "dilation_rate": [1, 1], "depth_multiplier": 1, "kernel_size": [3, 3], "bias_regularizer": null, "data_format": "channels_last", "use_bias": false, "activity_regularizer": null, "strides": [1, 1], "padding": "same", "activation": "linear", "name": "conv_dw_5", "depthwise_constraint": null, "bias_initializer": {"config": {}, "class_name": "Zeros"}, "trainable": true, "depthwise_regularizer": null, "bias_constraint": null}, "name": "conv_dw_5", "class_name": "DepthwiseConv2D", "inbound_nodes": [[["conv_pw_4_relu", 0, 0, {}]]]}, {"config": {"moving_mean_initializer": {"config": {}, "class_name": "Zeros"}, "gamma_constraint": null, "axis": -1, "momentum": 0.99, "gamma_initializer": {"config": {}, "class_name": "Ones"}, "name": "conv_dw_5_bn", "beta_regularizer": null, "gamma_regularizer": null, "moving_variance_initializer": {"config": {}, "class_name": "Ones"}, "center": true, "trainable": true, "epsilon": 0.001, "scale": true, "beta_constraint": null, "beta_initializer": {"config": {}, "class_name": "Zeros"}}, "name": "conv_dw_5_bn", "class_name": "BatchNormalization", "inbound_nodes": [[["conv_dw_5", 0, 0, {}]]]}, {"config": {"max_value": 6.0, "trainable": true, "name": "conv_dw_5_relu"}, "name": "conv_dw_5_relu", "class_name": "ReLU", "inbound_nodes": [[["conv_dw_5_bn", 0, 0, {}]]]}, {"config": {"kernel_regularizer": null, "dilation_rate": [1, 1], "kernel_size": [1, 1], "kernel_constraint": null, "filters": 256, "use_bias": false, "padding": "same", "activity_regularizer": null, "strides": [1, 1], "activation": "linear", "name": "conv_pw_5", "kernel_initializer": {"config": {"seed": null, "distribution": "uniform", "scale": 1.0, "mode": "fan_avg"}, "class_name": "VarianceScaling"}, "data_format": "channels_last", "bias_initializer": {"config": {}, "class_name": "Zeros"}, "trainable": true, "bias_regularizer": null, "bias_constraint": null}, "name": "conv_pw_5", "class_name": "Conv2D", "inbound_nodes": [[["conv_dw_5_relu", 0, 0, {}]]]}, {"config": {"moving_mean_initializer": {"config": {}, "class_name": "Zeros"}, "gamma_constraint": null, "axis": -1, "momentum": 0.99, "gamma_initializer": {"config": {}, "class_name": "Ones"}, "name": "conv_pw_5_bn", "beta_regularizer": null, "gamma_regularizer": null, "moving_variance_initializer": {"config": {}, "class_name": "Ones"}, "center": true, "trainable": true, "epsilon": 0.001, "scale": true, "beta_constraint": null, "beta_initializer": {"config": {}, "class_name": "Zeros"}}, "name": "conv_pw_5_bn", "class_name": "BatchNormalization", "inbound_nodes": [[["conv_pw_5", 0, 0, {}]]]}, {"config": {"max_value": 6.0, "trainable": true, "name": "conv_pw_5_relu"}, "name": "conv_pw_5_relu", "class_name": "ReLU", "inbound_nodes": [[["conv_pw_5_bn", 0, 0, {}]]]}, {"config": {"trainable": true, "name": "conv_pad_6", "padding": [[0, 1], [0, 1]], "data_format": "channels_last"}, "name": "conv_pad_6", "class_name": "ZeroPadding2D", "inbound_nodes": [[["conv_pw_5_relu", 0, 0, {}]]]}, {"config": {"depthwise_initializer": {"config": {"seed": null, "distribution": "uniform", "scale": 1.0, "mode": "fan_avg"}, "class_name": "VarianceScaling"}, "dilation_rate": [1, 1], "depth_multiplier": 1, "kernel_size": [3, 3], "bias_regularizer": null, "data_format": "channels_last", "use_bias": false, "activity_regularizer": null, "strides": [2, 2], "padding": "valid", "activation": "linear", "name": "conv_dw_6", "depthwise_constraint": null, "bias_initializer": {"config": {}, "class_name": "Zeros"}, "trainable": true, "depthwise_regularizer": null, "bias_constraint": null}, "name": "conv_dw_6", "class_name": "DepthwiseConv2D", "inbound_nodes": [[["conv_pad_6", 0, 0, {}]]]}, {"config": {"moving_mean_initializer": {"config": {}, "class_name": "Zeros"}, "gamma_constraint": null, "axis": -1, "momentum": 0.99, "gamma_initializer": {"config": {}, "class_name": "Ones"}, "name": "conv_dw_6_bn", "beta_regularizer": null, "gamma_regularizer": null, "moving_variance_initializer": {"config": {}, "class_name": "Ones"}, "center": true, "trainable": true, "epsilon": 0.001, "scale": true, "beta_constraint": null, "beta_initializer": {"config": {}, "class_name": "Zeros"}}, "name": "conv_dw_6_bn", "class_name": "BatchNormalization", "inbound_nodes": [[["conv_dw_6", 0, 0, {}]]]}, {"config": {"max_value": 6.0, "trainable": true, "name": "conv_dw_6_relu"}, "name": "conv_dw_6_relu", "class_name": "ReLU", "inbound_nodes": [[["conv_dw_6_bn", 0, 0, {}]]]}, {"config": {"kernel_regularizer": null, "dilation_rate": [1, 1], "kernel_size": [1, 1], "kernel_constraint": null, "filters": 512, "use_bias": false, "padding": "same", "activity_regularizer": null, "strides": [1, 1], "activation": "linear", "name": "conv_pw_6", "kernel_initializer": {"config": {"seed": null, "distribution": "uniform", "scale": 1.0, "mode": "fan_avg"}, "class_name": "VarianceScaling"}, "data_format": "channels_last", "bias_initializer": {"config": {}, "class_name": "Zeros"}, "trainable": true, "bias_regularizer": null, "bias_constraint": null}, "name": "conv_pw_6", "class_name": "Conv2D", "inbound_nodes": [[["conv_dw_6_relu", 0, 0, {}]]]}, {"config": {"moving_mean_initializer": {"config": {}, "class_name": "Zeros"}, "gamma_constraint": null, "axis": -1, "momentum": 0.99, "gamma_initializer": {"config": {}, "class_name": "Ones"}, "name": "conv_pw_6_bn", "beta_regularizer": null, "gamma_regularizer": null, "moving_variance_initializer": {"config": {}, "class_name": "Ones"}, "center": true, "trainable": true, "epsilon": 0.001, "scale": true, "beta_constraint": null, "beta_initializer": {"config": {}, "class_name": "Zeros"}}, "name": "conv_pw_6_bn", "class_name": "BatchNormalization", "inbound_nodes": [[["conv_pw_6", 0, 0, {}]]]}, {"config": {"max_value": 6.0, "trainable": true, "name": "conv_pw_6_relu"}, "name": "conv_pw_6_relu", "class_name": "ReLU", "inbound_nodes": [[["conv_pw_6_bn", 0, 0, {}]]]}, {"config": {"depthwise_initializer": {"config": {"seed": null, "distribution": "uniform", "scale": 1.0, "mode": "fan_avg"}, "class_name": "VarianceScaling"}, "dilation_rate": [1, 1], "depth_multiplier": 1, "kernel_size": [3, 3], "bias_regularizer": null, "data_format": "channels_last", "use_bias": false, "activity_regularizer": null, "strides": [1, 1], "padding": "same", "activation": "linear", "name": "conv_dw_7", "depthwise_constraint": null, "bias_initializer": {"config": {}, "class_name": "Zeros"}, "trainable": true, "depthwise_regularizer": null, "bias_constraint": null}, "name": "conv_dw_7", "class_name": "DepthwiseConv2D", "inbound_nodes": [[["conv_pw_6_relu", 0, 0, {}]]]}, {"config": {"moving_mean_initializer": {"config": {}, "class_name": "Zeros"}, "gamma_constraint": null, "axis": -1, "momentum": 0.99, "gamma_initializer": {"config": {}, "class_name": "Ones"}, "name": "conv_dw_7_bn", "beta_regularizer": null, "gamma_regularizer": null, "moving_variance_initializer": {"config": {}, "class_name": "Ones"}, "center": true, "trainable": true, "epsilon": 0.001, "scale": true, "beta_constraint": null, "beta_initializer": {"config": {}, "class_name": "Zeros"}}, "name": "conv_dw_7_bn", "class_name": "BatchNormalization", "inbound_nodes": [[["conv_dw_7", 0, 0, {}]]]}, {"config": {"max_value": 6.0, "trainable": true, "name": "conv_dw_7_relu"}, "name": "conv_dw_7_relu", "class_name": "ReLU", "inbound_nodes": [[["conv_dw_7_bn", 0, 0, {}]]]}, {"config": {"kernel_regularizer": null, "dilation_rate": [1, 1], "kernel_size": [1, 1], "kernel_constraint": null, "filters": 512, "use_bias": false, "padding": "same", "activity_regularizer": null, "strides": [1, 1], "activation": "linear", "name": "conv_pw_7", "kernel_initializer": {"config": {"seed": null, "distribution": "uniform", "scale": 1.0, "mode": "fan_avg"}, "class_name": "VarianceScaling"}, "data_format": "channels_last", "bias_initializer": {"config": {}, "class_name": "Zeros"}, "trainable": true, "bias_regularizer": null, "bias_constraint": null}, "name": "conv_pw_7", "class_name": "Conv2D", "inbound_nodes": [[["conv_dw_7_relu", 0, 0, {}]]]}, {"config": {"moving_mean_initializer": {"config": {}, "class_name": "Zeros"}, "gamma_constraint": null, "axis": -1, "momentum": 0.99, "gamma_initializer": {"config": {}, "class_name": "Ones"}, "name": "conv_pw_7_bn", "beta_regularizer": null, "gamma_regularizer": null, "moving_variance_initializer": {"config": {}, "class_name": "Ones"}, "center": true, "trainable": true, "epsilon": 0.001, "scale": true, "beta_constraint": null, "beta_initializer": {"config": {}, "class_name": "Zeros"}}, "name": "conv_pw_7_bn", "class_name": "BatchNormalization", "inbound_nodes": [[["conv_pw_7", 0, 0, {}]]]}, {"config": {"max_value": 6.0, "trainable": true, "name": "conv_pw_7_relu"}, "name": "conv_pw_7_relu", "class_name": "ReLU", "inbound_nodes": [[["conv_pw_7_bn", 0, 0, {}]]]}, {"config": {"depthwise_initializer": {"config": {"seed": null, "distribution": "uniform", "scale": 1.0, "mode": "fan_avg"}, "class_name": "VarianceScaling"}, "dilation_rate": [1, 1], "depth_multiplier": 1, "kernel_size": [3, 3], "bias_regularizer": null, "data_format": "channels_last", "use_bias": false, "activity_regularizer": null, "strides": [1, 1], "padding": "same", "activation": "linear", "name": "conv_dw_8", "depthwise_constraint": null, "bias_initializer": {"config": {}, "class_name": "Zeros"}, "trainable": true, "depthwise_regularizer": null, "bias_constraint": null}, "name": "conv_dw_8", "class_name": "DepthwiseConv2D", "inbound_nodes": [[["conv_pw_7_relu", 0, 0, {}]]]}, {"config": {"moving_mean_initializer": {"config": {}, "class_name": "Zeros"}, "gamma_constraint": null, "axis": -1, "momentum": 0.99, "gamma_initializer": {"config": {}, "class_name": "Ones"}, "name": "conv_dw_8_bn", "beta_regularizer": null, "gamma_regularizer": null, "moving_variance_initializer": {"config": {}, "class_name": "Ones"}, "center": true, "trainable": true, "epsilon": 0.001, "scale": true, "beta_constraint": null, "beta_initializer": {"config": {}, "class_name": "Zeros"}}, "name": "conv_dw_8_bn", "class_name": "BatchNormalization", "inbound_nodes": [[["conv_dw_8", 0, 0, {}]]]}, {"config": {"max_value": 6.0, "trainable": true, "name": "conv_dw_8_relu"}, "name": "conv_dw_8_relu", "class_name": "ReLU", "inbound_nodes": [[["conv_dw_8_bn", 0, 0, {}]]]}, {"config": {"kernel_regularizer": null, "dilation_rate": [1, 1], "kernel_size": [1, 1], "kernel_constraint": null, "filters": 512, "use_bias": false, "padding": "same", "activity_regularizer": null, "strides": [1, 1], "activation": "linear", "name": "conv_pw_8", "kernel_initializer": {"config": {"seed": null, "distribution": "uniform", "scale": 1.0, "mode": "fan_avg"}, "class_name": "VarianceScaling"}, "data_format": "channels_last", "bias_initializer": {"config": {}, "class_name": "Zeros"}, "trainable": true, "bias_regularizer": null, "bias_constraint": null}, "name": "conv_pw_8", "class_name": "Conv2D", "inbound_nodes": [[["conv_dw_8_relu", 0, 0, {}]]]}, {"config": {"moving_mean_initializer": {"config": {}, "class_name": "Zeros"}, "gamma_constraint": null, "axis": -1, "momentum": 0.99, "gamma_initializer": {"config": {}, "class_name": "Ones"}, "name": "conv_pw_8_bn", "beta_regularizer": null, "gamma_regularizer": null, "moving_variance_initializer": {"config": {}, "class_name": "Ones"}, "center": true, "trainable": true, "epsilon": 0.001, "scale": true, "beta_constraint": null, "beta_initializer": {"config": {}, "class_name": "Zeros"}}, "name": "conv_pw_8_bn", "class_name": "BatchNormalization", "inbound_nodes": [[["conv_pw_8", 0, 0, {}]]]}, {"config": {"max_value": 6.0, "trainable": true, "name": "conv_pw_8_relu"}, "name": "conv_pw_8_relu", "class_name": "ReLU", "inbound_nodes": [[["conv_pw_8_bn", 0, 0, {}]]]}, {"config": {"depthwise_initializer": {"config": {"seed": null, "distribution": "uniform", "scale": 1.0, "mode": "fan_avg"}, "class_name": "VarianceScaling"}, "dilation_rate": [1, 1], "depth_multiplier": 1, "kernel_size": [3, 3], "bias_regularizer": null, "data_format": "channels_last", "use_bias": false, "activity_regularizer": null, "strides": [1, 1], "padding": "same", "activation": "linear", "name": "conv_dw_9", "depthwise_constraint": null, "bias_initializer": {"config": {}, "class_name": "Zeros"}, "trainable": true, "depthwise_regularizer": null, "bias_constraint": null}, "name": "conv_dw_9", "class_name": "DepthwiseConv2D", "inbound_nodes": [[["conv_pw_8_relu", 0, 0, {}]]]}, {"config": {"moving_mean_initializer": {"config": {}, "class_name": "Zeros"}, "gamma_constraint": null, "axis": -1, "momentum": 0.99, "gamma_initializer": {"config": {}, "class_name": "Ones"}, "name": "conv_dw_9_bn", "beta_regularizer": null, "gamma_regularizer": null, "moving_variance_initializer": {"config": {}, "class_name": "Ones"}, "center": true, "trainable": true, "epsilon": 0.001, "scale": true, "beta_constraint": null, "beta_initializer": {"config": {}, "class_name": "Zeros"}}, "name": "conv_dw_9_bn", "class_name": "BatchNormalization", "inbound_nodes": [[["conv_dw_9", 0, 0, {}]]]}, {"config": {"max_value": 6.0, "trainable": true, "name": "conv_dw_9_relu"}, "name": "conv_dw_9_relu", "class_name": "ReLU", "inbound_nodes": [[["conv_dw_9_bn", 0, 0, {}]]]}, {"config": {"kernel_regularizer": null, "dilation_rate": [1, 1], "kernel_size": [1, 1], "kernel_constraint": null, "filters": 512, "use_bias": false, "padding": "same", "activity_regularizer": null, "strides": [1, 1], "activation": "linear", "name": "conv_pw_9", "kernel_initializer": {"config": {"seed": null, "distribution": "uniform", "scale": 1.0, "mode": "fan_avg"}, "class_name": "VarianceScaling"}, "data_format": "channels_last", "bias_initializer": {"config": {}, "class_name": "Zeros"}, "trainable": true, "bias_regularizer": null, "bias_constraint": null}, "name": "conv_pw_9", "class_name": "Conv2D", "inbound_nodes": [[["conv_dw_9_relu", 0, 0, {}]]]}, {"config": {"moving_mean_initializer": {"config": {}, "class_name": "Zeros"}, "gamma_constraint": null, "axis": -1, "momentum": 0.99, "gamma_initializer": {"config": {}, "class_name": "Ones"}, "name": "conv_pw_9_bn", "beta_regularizer": null, "gamma_regularizer": null, "moving_variance_initializer": {"config": {}, "class_name": "Ones"}, "center": true, "trainable": true, "epsilon": 0.001, "scale": true, "beta_constraint": null, "beta_initializer": {"config": {}, "class_name": "Zeros"}}, "name": "conv_pw_9_bn", "class_name": "BatchNormalization", "inbound_nodes": [[["conv_pw_9", 0, 0, {}]]]}, {"config": {"max_value": 6.0, "trainable": true, "name": "conv_pw_9_relu"}, "name": "conv_pw_9_relu", "class_name": "ReLU", "inbound_nodes": [[["conv_pw_9_bn", 0, 0, {}]]]}, {"config": {"depthwise_initializer": {"config": {"seed": null, "distribution": "uniform", "scale": 1.0, "mode": "fan_avg"}, "class_name": "VarianceScaling"}, "dilation_rate": [1, 1], "depth_multiplier": 1, "kernel_size": [3, 3], "bias_regularizer": null, "data_format": "channels_last", "use_bias": false, "activity_regularizer": null, "strides": [1, 1], "padding": "same", "activation": "linear", "name": "conv_dw_10", "depthwise_constraint": null, "bias_initializer": {"config": {}, "class_name": "Zeros"}, "trainable": true, "depthwise_regularizer": null, "bias_constraint": null}, "name": "conv_dw_10", "class_name": "DepthwiseConv2D", "inbound_nodes": [[["conv_pw_9_relu", 0, 0, {}]]]}, {"config": {"moving_mean_initializer": {"config": {}, "class_name": "Zeros"}, "gamma_constraint": null, "axis": -1, "momentum": 0.99, "gamma_initializer": {"config": {}, "class_name": "Ones"}, "name": "conv_dw_10_bn", "beta_regularizer": null, "gamma_regularizer": null, "moving_variance_initializer": {"config": {}, "class_name": "Ones"}, "center": true, "trainable": true, "epsilon": 0.001, "scale": true, "beta_constraint": null, "beta_initializer": {"config": {}, "class_name": "Zeros"}}, "name": "conv_dw_10_bn", "class_name": "BatchNormalization", "inbound_nodes": [[["conv_dw_10", 0, 0, {}]]]}, {"config": {"max_value": 6.0, "trainable": true, "name": "conv_dw_10_relu"}, "name": "conv_dw_10_relu", "class_name": "ReLU", "inbound_nodes": [[["conv_dw_10_bn", 0, 0, {}]]]}, {"config": {"kernel_regularizer": null, "dilation_rate": [1, 1], "kernel_size": [1, 1], "kernel_constraint": null, "filters": 512, "use_bias": false, "padding": "same", "activity_regularizer": null, "strides": [1, 1], "activation": "linear", "name": "conv_pw_10", "kernel_initializer": {"config": {"seed": null, "distribution": "uniform", "scale": 1.0, "mode": "fan_avg"}, "class_name": "VarianceScaling"}, "data_format": "channels_last", "bias_initializer": {"config": {}, "class_name": "Zeros"}, "trainable": true, "bias_regularizer": null, "bias_constraint": null}, "name": "conv_pw_10", "class_name": "Conv2D", "inbound_nodes": [[["conv_dw_10_relu", 0, 0, {}]]]}, {"config": {"moving_mean_initializer": {"config": {}, "class_name": "Zeros"}, "gamma_constraint": null, "axis": -1, "momentum": 0.99, "gamma_initializer": {"config": {}, "class_name": "Ones"}, "name": "conv_pw_10_bn", "beta_regularizer": null, "gamma_regularizer": null, "moving_variance_initializer": {"config": {}, "class_name": "Ones"}, "center": true, "trainable": true, "epsilon": 0.001, "scale": true, "beta_constraint": null, "beta_initializer": {"config": {}, "class_name": "Zeros"}}, "name": "conv_pw_10_bn", "class_name": "BatchNormalization", "inbound_nodes": [[["conv_pw_10", 0, 0, {}]]]}, {"config": {"max_value": 6.0, "trainable": true, "name": "conv_pw_10_relu"}, "name": "conv_pw_10_relu", "class_name": "ReLU", "inbound_nodes": [[["conv_pw_10_bn", 0, 0, {}]]]}, {"config": {"depthwise_initializer": {"config": {"seed": null, "distribution": "uniform", "scale": 1.0, "mode": "fan_avg"}, "class_name": "VarianceScaling"}, "dilation_rate": [1, 1], "depth_multiplier": 1, "kernel_size": [3, 3], "bias_regularizer": null, "data_format": "channels_last", "use_bias": false, "activity_regularizer": null, "strides": [1, 1], "padding": "same", "activation": "linear", "name": "conv_dw_11", "depthwise_constraint": null, "bias_initializer": {"config": {}, "class_name": "Zeros"}, "trainable": true, "depthwise_regularizer": null, "bias_constraint": null}, "name": "conv_dw_11", "class_name": "DepthwiseConv2D", "inbound_nodes": [[["conv_pw_10_relu", 0, 0, {}]]]}, {"config": {"moving_mean_initializer": {"config": {}, "class_name": "Zeros"}, "gamma_constraint": null, "axis": -1, "momentum": 0.99, "gamma_initializer": {"config": {}, "class_name": "Ones"}, "name": "conv_dw_11_bn", "beta_regularizer": null, "gamma_regularizer": null, "moving_variance_initializer": {"config": {}, "class_name": "Ones"}, "center": true, "trainable": true, "epsilon": 0.001, "scale": true, "beta_constraint": null, "beta_initializer": {"config": {}, "class_name": "Zeros"}}, "name": "conv_dw_11_bn", "class_name": "BatchNormalization", "inbound_nodes": [[["conv_dw_11", 0, 0, {}]]]}, {"config": {"max_value": 6.0, "trainable": true, "name": "conv_dw_11_relu"}, "name": "conv_dw_11_relu", "class_name": "ReLU", "inbound_nodes": [[["conv_dw_11_bn", 0, 0, {}]]]}, {"config": {"kernel_regularizer": null, "dilation_rate": [1, 1], "kernel_size": [1, 1], "kernel_constraint": null, "filters": 512, "use_bias": false, "padding": "same", "activity_regularizer": null, "strides": [1, 1], "activation": "linear", "name": "conv_pw_11", "kernel_initializer": {"config": {"seed": null, "distribution": "uniform", "scale": 1.0, "mode": "fan_avg"}, "class_name": "VarianceScaling"}, "data_format": "channels_last", "bias_initializer": {"config": {}, "class_name": "Zeros"}, "trainable": true, "bias_regularizer": null, "bias_constraint": null}, "name": "conv_pw_11", "class_name": "Conv2D", "inbound_nodes": [[["conv_dw_11_relu", 0, 0, {}]]]}, {"config": {"moving_mean_initializer": {"config": {}, "class_name": "Zeros"}, "gamma_constraint": null, "axis": -1, "momentum": 0.99, "gamma_initializer": {"config": {}, "class_name": "Ones"}, "name": "conv_pw_11_bn", "beta_regularizer": null, "gamma_regularizer": null, "moving_variance_initializer": {"config": {}, "class_name": "Ones"}, "center": true, "trainable": true, "epsilon": 0.001, "scale": true, "beta_constraint": null, "beta_initializer": {"config": {}, "class_name": "Zeros"}}, "name": "conv_pw_11_bn", "class_name": "BatchNormalization", "inbound_nodes": [[["conv_pw_11", 0, 0, {}]]]}, {"config": {"max_value": 6.0, "trainable": true, "name": "conv_pw_11_relu"}, "name": "conv_pw_11_relu", "class_name": "ReLU", "inbound_nodes": [[["conv_pw_11_bn", 0, 0, {}]]]}, {"config": {"trainable": true, "name": "conv_pad_12", "padding": [[0, 1], [0, 1]], "data_format": "channels_last"}, "name": "conv_pad_12", "class_name": "ZeroPadding2D", "inbound_nodes": [[["conv_pw_11_relu", 0, 0, {}]]]}, {"config": {"depthwise_initializer": {"config": {"seed": null, "distribution": "uniform", "scale": 1.0, "mode": "fan_avg"}, "class_name": "VarianceScaling"}, "dilation_rate": [1, 1], "depth_multiplier": 1, "kernel_size": [3, 3], "bias_regularizer": null, "data_format": "channels_last", "use_bias": false, "activity_regularizer": null, "strides": [2, 2], "padding": "valid", "activation": "linear", "name": "conv_dw_12", "depthwise_constraint": null, "bias_initializer": {"config": {}, "class_name": "Zeros"}, "trainable": true, "depthwise_regularizer": null, "bias_constraint": null}, "name": "conv_dw_12", "class_name": "DepthwiseConv2D", "inbound_nodes": [[["conv_pad_12", 0, 0, {}]]]}, {"config": {"moving_mean_initializer": {"config": {}, "class_name": "Zeros"}, "gamma_constraint": null, "axis": -1, "momentum": 0.99, "gamma_initializer": {"config": {}, "class_name": "Ones"}, "name": "conv_dw_12_bn", "beta_regularizer": null, "gamma_regularizer": null, "moving_variance_initializer": {"config": {}, "class_name": "Ones"}, "center": true, "trainable": true, "epsilon": 0.001, "scale": true, "beta_constraint": null, "beta_initializer": {"config": {}, "class_name": "Zeros"}}, "name": "conv_dw_12_bn", "class_name": "BatchNormalization", "inbound_nodes": [[["conv_dw_12", 0, 0, {}]]]}, {"config": {"max_value": 6.0, "trainable": true, "name": "conv_dw_12_relu"}, "name": "conv_dw_12_relu", "class_name": "ReLU", "inbound_nodes": [[["conv_dw_12_bn", 0, 0, {}]]]}, {"config": {"kernel_regularizer": null, "dilation_rate": [1, 1], "kernel_size": [1, 1], "kernel_constraint": null, "filters": 1024, "use_bias": false, "padding": "same", "activity_regularizer": null, "strides": [1, 1], "activation": "linear", "name": "conv_pw_12", "kernel_initializer": {"config": {"seed": null, "distribution": "uniform", "scale": 1.0, "mode": "fan_avg"}, "class_name": "VarianceScaling"}, "data_format": "channels_last", "bias_initializer": {"config": {}, "class_name": "Zeros"}, "trainable": true, "bias_regularizer": null, "bias_constraint": null}, "name": "conv_pw_12", "class_name": "Conv2D", "inbound_nodes": [[["conv_dw_12_relu", 0, 0, {}]]]}, {"config": {"moving_mean_initializer": {"config": {}, "class_name": "Zeros"}, "gamma_constraint": null, "axis": -1, "momentum": 0.99, "gamma_initializer": {"config": {}, "class_name": "Ones"}, "name": "conv_pw_12_bn", "beta_regularizer": null, "gamma_regularizer": null, "moving_variance_initializer": {"config": {}, "class_name": "Ones"}, "center": true, "trainable": true, "epsilon": 0.001, "scale": true, "beta_constraint": null, "beta_initializer": {"config": {}, "class_name": "Zeros"}}, "name": "conv_pw_12_bn", "class_name": "BatchNormalization", "inbound_nodes": [[["conv_pw_12", 0, 0, {}]]]}, {"config": {"max_value": 6.0, "trainable": true, "name": "conv_pw_12_relu"}, "name": "conv_pw_12_relu", "class_name": "ReLU", "inbound_nodes": [[["conv_pw_12_bn", 0, 0, {}]]]}, {"config": {"depthwise_initializer": {"config": {"seed": null, "distribution": "uniform", "scale": 1.0, "mode": "fan_avg"}, "class_name": "VarianceScaling"}, "dilation_rate": [1, 1], "depth_multiplier": 1, "kernel_size": [3, 3], "bias_regularizer": null, "data_format": "channels_last", "use_bias": false, "activity_regularizer": null, "strides": [1, 1], "padding": "same", "activation": "linear", "name": "conv_dw_13", "depthwise_constraint": null, "bias_initializer": {"config": {}, "class_name": "Zeros"}, "trainable": true, "depthwise_regularizer": null, "bias_constraint": null}, "name": "conv_dw_13", "class_name": "DepthwiseConv2D", "inbound_nodes": [[["conv_pw_12_relu", 0, 0, {}]]]}, {"config": {"moving_mean_initializer": {"config": {}, "class_name": "Zeros"}, "gamma_constraint": null, "axis": -1, "momentum": 0.99, "gamma_initializer": {"config": {}, "class_name": "Ones"}, "name": "conv_dw_13_bn", "beta_regularizer": null, "gamma_regularizer": null, "moving_variance_initializer": {"config": {}, "class_name": "Ones"}, "center": true, "trainable": true, "epsilon": 0.001, "scale": true, "beta_constraint": null, "beta_initializer": {"config": {}, "class_name": "Zeros"}}, "name": "conv_dw_13_bn", "class_name": "BatchNormalization", "inbound_nodes": [[["conv_dw_13", 0, 0, {}]]]}, {"config": {"max_value": 6.0, "trainable": true, "name": "conv_dw_13_relu"}, "name": "conv_dw_13_relu", "class_name": "ReLU", "inbound_nodes": [[["conv_dw_13_bn", 0, 0, {}]]]}, {"config": {"kernel_regularizer": null, "dilation_rate": [1, 1], "kernel_size": [1, 1], "kernel_constraint": null, "filters": 1024, "use_bias": false, "padding": "same", "activity_regularizer": null, "strides": [1, 1], "activation": "linear", "name": "conv_pw_13", "kernel_initializer": {"config": {"seed": null, "distribution": "uniform", "scale": 1.0, "mode": "fan_avg"}, "class_name": "VarianceScaling"}, "data_format": "channels_last", "bias_initializer": {"config": {}, "class_name": "Zeros"}, "trainable": true, "bias_regularizer": null, "bias_constraint": null}, "name": "conv_pw_13", "class_name": "Conv2D", "inbound_nodes": [[["conv_dw_13_relu", 0, 0, {}]]]}, {"config": {"moving_mean_initializer": {"config": {}, "class_name": "Zeros"}, "gamma_constraint": null, "axis": -1, "momentum": 0.99, "gamma_initializer": {"config": {}, "class_name": "Ones"}, "name": "conv_pw_13_bn", "beta_regularizer": null, "gamma_regularizer": null, "moving_variance_initializer": {"config": {}, "class_name": "Ones"}, "center": true, "trainable": true, "epsilon": 0.001, "scale": true, "beta_constraint": null, "beta_initializer": {"config": {}, "class_name": "Zeros"}}, "name": "conv_pw_13_bn", "class_name": "BatchNormalization", "inbound_nodes": [[["conv_pw_13", 0, 0, {}]]]}, {"config": {"max_value": 6.0, "trainable": true, "name": "conv_pw_13_relu"}, "name": "conv_pw_13_relu", "class_name": "ReLU", "inbound_nodes": [[["conv_pw_13_bn", 0, 0, {}]]]}, {"config": {"trainable": true, "name": "global_average_pooling2d_1", "data_format": "channels_last"}, "name": "global_average_pooling2d_1", "class_name": "GlobalAveragePooling2D", "inbound_nodes": [[["conv_pw_13_relu", 0, 0, {}]]]}, {"config": {"kernel_regularizer": null, "kernel_constraint": null, "use_bias": true, "activity_regularizer": null, "activation": "softmax", "name": "softmax", "kernel_initializer": {"config": {"seed": null, "distribution": "uniform", "scale": 1.0, "mode": "fan_avg"}, "class_name": "VarianceScaling"}, "bias_initializer": {"config": {}, "class_name": "Zeros"}, "units": 2, "trainable": true, "bias_regularizer": null, "bias_constraint": null}, "name": "softmax", "class_name": "Dense", "inbound_nodes": [[["global_average_pooling2d_1", 0, 0, {}]]]}], "output_layers": [["softmax", 0, 0]], "input_layers": [["input_1", 0, 0]]}, "keras_version": "2.2.2", "class_name": "Model"}